…
    Exts:['.bin']
    Dims:[1]
    Reso:[1]
    Norm:[False]
Dataset asvspoof2019_val:
  Time steps: 1382564017 
  Data sequence num: 24844
  Maximum sequence length: 185508
  Minimum sequence length: 11122
  Inputs
    Dirs:
        /home/smg/wang/WORK/WORK/WORK/pytorch-project-2020/proj-asvspoof/data/train_dev
    Exts:['.wav']
    Dims:[1]
    Reso:[1]
    Norm:[False]
  Outputs
    Dirs:
    Exts:['.bin']
    Dims:[1]
    Reso:[1]
    Norm:[False]
[94mUse single GPU: Tesla V100-DGXS-32GB[0m
Model(
  (m_resampler): Resample()
  (m_vad): Vad()
  (m_model): ModuleList(
    (0): ResNet(
      (conv1): Conv2d(1, 16, kernel_size=(9, 3), stride=(3, 1), padding=(1, 1), bias=False)
      (bn1): BatchNorm2d(16, eps=1e-05, momentum=0.1, affine=True, track_running_stats=True)
      (activation): ReLU()
      (layer1): Sequential(
        (0): PreActBlock(
          (bn1): BatchNorm2d(16, eps=1e-05, momentum=0.1, affine=True, track_running_stats=True)
          (conv1): Conv2d(16, 64, kernel_size=(3, 3), stride=(1, 1), padding=(1, 1), bias=False)
          (bn2): BatchNorm2d(64, eps=1e-05, momentum=0.1, affine=True, track_running_stats=True)
          (conv2): Conv2d(64, 64, kernel_size=(3, 3), stride=(1, 1), padding=(1, 1), bias=False)
          (shortcut): Sequential(
            (0): Conv2d(16, 64, kernel_size=(1, 1), stride=(1, 1), bias=False)
          )
        )
        (1): PreActBlock(
          (bn1): BatchNorm2d(64, eps=1e-05, momentum=0.1, affine=True, track_running_stats=True)
          (conv1): Conv2d(64, 64, kernel_size=(3, 3), stride=(1, 1), padding=(1, 1), bias=False)
          (bn2): BatchNorm2d(64, eps=1e-05, momentum=0.1, affine=True, track_running_stats=True)
          (conv2): Conv2d(64, 64, kernel_size=(3, 3), stride=(1, 1), padding=(1, 1), bias=False)
        )
      )
      (layer2): Sequential(
        (0): PreActBlock(
          (bn1): BatchNorm2d(64, eps=1e-05, momentum=0.1, affine=True, track_running_stats=True)
          (conv1): Conv2d(64, 128, kernel_size=(3, 3), stride=(2, 2), padding=(1, 1), bias=False)
          (bn2): BatchNorm2d(128, eps=1e-05, momentum=0.1, affine=True, track_running_stats=True)
          (conv2): Conv2d(128, 128, kernel_size=(3, 3), stride=(1, 1), padding=(1, 1), bias=False)
          (shortcut): Sequential(
            (0): Conv2d(64, 128, kernel_size=(1, 1), stride=(2, 2), bias=False)
          )
        )
        (1): PreActBlock(
          (bn1): BatchNorm2d(128, eps=1e-05, momentum=0.1, affine=True, track_running_stats=True)
          (conv1): Conv2d(128, 128, kernel_size=(3, 3), stride=(1, 1), padding=(1, 1), bias=False)
          (bn2): BatchNorm2d(128, eps=1e-05, momentum=0.1, affine=True, track_running_stats=True)
          (conv2): Conv2d(128, 128, kernel_size=(3, 3), stride=(1, 1), padding=(1, 1), bias=False)
        )
      )
      (layer3): Sequential(
        (0): PreActBlock(
          (bn1): BatchNorm2d(128, eps=1e-05, momentum=0.1, affine=True, track_running_stats=True)
          (conv1): Conv2d(128, 256, kernel_size=(3, 3), stride=(2, 2), padding=(1, 1), bias=False)
          (bn2): BatchNorm2d(256, eps=1e-05, momentum=0.1, affine=True, track_running_stats=True)
          (conv2): Conv2d(256, 256, kernel_size=(3, 3), stride=(1, 1), padding=(1, 1), bias=False)
          (shortcut): Sequential(
            (0): Conv2d(128, 256, kernel_size=(1, 1), stride=(2, 2), bias=False)
          )
        )
        (1): PreActBlock(
          (bn1): BatchNorm2d(256, eps=1e-05, momentum=0.1, affine=True, track_running_stats=True)
          (conv1): Conv2d(256, 256, kernel_size=(3, 3), stride=(1, 1), padding=(1, 1), bias=False)
          (bn2): BatchNorm2d(256, eps=1e-05, momentum=0.1, affine=True, track_running_stats=True)
          (conv2): Conv2d(256, 256, kernel_size=(3, 3), stride=(1, 1), padding=(1, 1), bias=False)
        )
      )
      (layer4): Sequential(
        (0): PreActBlock(
          (bn1): BatchNorm2d(256, eps=1e-05, momentum=0.1, affine=True, track_running_stats=True)
          (conv1): Conv2d(256, 512, kernel_size=(3, 3), stride=(2, 2), padding=(1, 1), bias=False)
          (bn2): BatchNorm2d(512, eps=1e-05, momentum=0.1, affine=True, track_running_stats=True)
          (conv2): Conv2d(512, 512, kernel_size=(3, 3), stride=(1, 1), padding=(1, 1), bias=False)
          (shortcut): Sequential(
            (0): Conv2d(256, 512, kernel_size=(1, 1), stride=(2, 2), bias=False)
          )
        )
        (1): PreActBlock(
          (bn1): BatchNorm2d(512, eps=1e-05, momentum=0.1, affine=True, track_running_stats=True)
          (conv1): Conv2d(512, 512, kernel_size=(3, 3), stride=(1, 1), padding=(1, 1), bias=False)
          (bn2): BatchNorm2d(512, eps=1e-05, momentum=0.1, affine=True, track_running_stats=True)
          (conv2): Conv2d(512, 512, kernel_size=(3, 3), stride=(1, 1), padding=(1, 1), bias=False)
        )
      )
      (conv5): Conv2d(512, 256, kernel_size=(3, 3), stride=(1, 1), padding=(0, 1), bias=False)
      (bn5): BatchNorm2d(256, eps=1e-05, momentum=0.1, affine=True, track_running_stats=True)
      (fc): Linear(in_features=512, out_features=256, bias=True)
      (fc_mu): Linear(in_features=256, out_features=2, bias=True)
      (attention): SelfWeightedPooling()
    )
  )
  (m_frontend): ModuleList(
    (0): LFCC(
      (l_dct): LinearDCT(in_features=20, out_features=20, bias=False)
    )
  )
  (m_a_softmax): ModuleList(
    (0): OCAngleLayer()
  )
)
Parameter number: 12450546
--------------------------------------------------------------
  Epoch |  Duration(s) |   Train loss |     Dev loss |  Best
…
