…
          (6): Conv1dKeepLength(
            64, 64, kernel_size=(3,), stride=(1,), dilation=(64,), bias=False
            (l_ac): Tanh()
          )
          (7): Conv1dKeepLength(
            64, 64, kernel_size=(3,), stride=(1,), dilation=(128,), bias=False
            (l_ac): Tanh()
          )
          (8): Conv1dKeepLength(
            64, 64, kernel_size=(3,), stride=(1,), dilation=(256,), bias=False
            (l_ac): Tanh()
          )
          (9): Conv1dKeepLength(
            64, 64, kernel_size=(3,), stride=(1,), dilation=(512,), bias=False
            (l_ac): Tanh()
          )
        )
        (l_ff_2): Linear(in_features=64, out_features=16, bias=False)
        (l_ff_2_tanh): Tanh()
        (l_ff_3): Linear(in_features=16, out_features=1, bias=False)
        (l_ff_3_tanh): Tanh()
      )
    )
    (l_noi_blocks): ModuleList(
      (0): NeuralFilterBlock(
        (l_ff_1): Linear(in_features=1, out_features=64, bias=False)
        (l_ff_1_tanh): Tanh()
        (l_convs): ModuleList(
          (0): Conv1dKeepLength(
            64, 64, kernel_size=(3,), stride=(1,), bias=False
            (l_ac): Tanh()
          )
          (1): Conv1dKeepLength(
            64, 64, kernel_size=(3,), stride=(1,), dilation=(2,), bias=False
            (l_ac): Tanh()
          )
          (2): Conv1dKeepLength(
            64, 64, kernel_size=(3,), stride=(1,), dilation=(4,), bias=False
            (l_ac): Tanh()
          )
          (3): Conv1dKeepLength(
            64, 64, kernel_size=(3,), stride=(1,), dilation=(8,), bias=False
            (l_ac): Tanh()
          )
          (4): Conv1dKeepLength(
            64, 64, kernel_size=(3,), stride=(1,), dilation=(16,), bias=False
            (l_ac): Tanh()
          )
        )
        (l_ff_2): Linear(in_features=64, out_features=16, bias=False)
        (l_ff_2_tanh): Tanh()
        (l_ff_3): Linear(in_features=16, out_features=1, bias=False)
        (l_ff_3_tanh): Tanh()
      )
    )
    (l_sinc_coef): SincFilter()
    (l_tv_filtering): TimeVarFIRFilter()
  )
)
Parameter number: 724265

[94mSetup discriminator[0m
[94mModel infor:[0m
ModelDiscriminator(
  (m_mpd): MultiPeriodDiscriminator(
    (discriminators): ModuleList(
      (0): DiscriminatorP(
        (convs): ModuleList(
          (0): Conv2d(1, 32, kernel_size=(5, 1), stride=(3, 1), padding=(2, 0))
          (1): Conv2d(32, 128, kernel_size=(5, 1), stride=(3, 1), padding=(2, 0))
          (2): Conv2d(128, 512, kernel_size=(5, 1), stride=(3, 1), padding=(2, 0))
          (3): Conv2d(512, 1024, kernel_size=(5, 1), stride=(3, 1), padding=(2, 0))
          (4): Conv2d(1024, 1024, kernel_size=(5, 1), stride=(1, 1), padding=(2, 0))
        )
        (conv_post): Conv2d(1024, 1, kernel_size=(3, 1), stride=(1, 1), padding=(1, 0))
      )
      (1): DiscriminatorP(
        (convs): ModuleList(
          (0): Conv2d(1, 32, kernel_size=(5, 1), stride=(3, 1), padding=(2, 0))
          (1): Conv2d(32, 128, kernel_size=(5, 1), stride=(3, 1), padding=(2, 0))
          (2): Conv2d(128, 512, kernel_size=(5, 1), stride=(3, 1), padding=(2, 0))
          (3): Conv2d(512, 1024, kernel_size=(5, 1), stride=(3, 1), padding=(2, 0))
          (4): Conv2d(1024, 1024, kernel_size=(5, 1), stride=(1, 1), padding=(2, 0))
        )
        (conv_post): Conv2d(1024, 1, kernel_size=(3, 1), stride=(1, 1), padding=(1, 0))
      )
      (2): DiscriminatorP(
        (convs): ModuleList(
          (0): Conv2d(1, 32, kernel_size=(5, 1), stride=(3, 1), padding=(2, 0))
          (1): Conv2d(32, 128, kernel_size=(5, 1), stride=(3, 1), padding=(2, 0))
          (2): Conv2d(128, 512, kernel_size=(5, 1), stride=(3, 1), padding=(2, 0))
          (3): Conv2d(512, 1024, kernel_size=(5, 1), stride=(3, 1), padding=(2, 0))
          (4): Conv2d(1024, 1024, kernel_size=(5, 1), stride=(1, 1), padding=(2, 0))
        )
        (conv_post): Conv2d(1024, 1, kernel_size=(3, 1), stride=(1, 1), padding=(1, 0))
      )
      (3): DiscriminatorP(
        (convs): ModuleList(
          (0): Conv2d(1, 32, kernel_size=(5, 1), stride=(3, 1), padding=(2, 0))
          (1): Conv2d(32, 128, kernel_size=(5, 1), stride=(3, 1), padding=(2, 0))
          (2): Conv2d(128, 512, kernel_size=(5, 1), stride=(3, 1), padding=(2, 0))
          (3): Conv2d(512, 1024, kernel_size=(5, 1), stride=(3, 1), padding=(2, 0))
          (4): Conv2d(1024, 1024, kernel_size=(5, 1), stride=(1, 1), padding=(2, 0))
        )
        (conv_post): Conv2d(1024, 1, kernel_size=(3, 1), stride=(1, 1), padding=(1, 0))
      )
      (4): DiscriminatorP(
        (convs): ModuleList(
          (0): Conv2d(1, 32, kernel_size=(5, 1), stride=(3, 1), padding=(2, 0))
          (1): Conv2d(32, 128, kernel_size=(5, 1), stride=(3, 1), padding=(2, 0))
          (2): Conv2d(128, 512, kernel_size=(5, 1), stride=(3, 1), padding=(2, 0))
          (3): Conv2d(512, 1024, kernel_size=(5, 1), stride=(3, 1), padding=(2, 0))
          (4): Conv2d(1024, 1024, kernel_size=(5, 1), stride=(1, 1), padding=(2, 0))
        )
        (conv_post): Conv2d(1024, 1, kernel_size=(3, 1), stride=(1, 1), padding=(1, 0))
      )
    )
  )
  (m_msd): MultiScaleDiscriminator(
    (discriminators): ModuleList(
      (0): DiscriminatorS(
        (convs): ModuleList(
          (0): Conv1d(1, 128, kernel_size=(15,), stride=(1,), padding=(7,))
          (1): Conv1d(128, 128, kernel_size=(41,), stride=(2,), padding=(20,), groups=4)
          (2): Conv1d(128, 256, kernel_size=(41,), stride=(2,), padding=(20,), groups=16)
          (3): Conv1d(256, 512, kernel_size=(41,), stride=(4,), padding=(20,), groups=16)
          (4): Conv1d(512, 1024, kernel_size=(41,), stride=(4,), padding=(20,), groups=16)
          (5): Conv1d(1024, 1024, kernel_size=(41,), stride=(1,), padding=(20,), groups=16)
          (6): Conv1d(1024, 1024, kernel_size=(5,), stride=(1,), padding=(2,))
        )
        (conv_post): Conv1d(1024, 1, kernel_size=(3,), stride=(1,), padding=(1,))
      )
      (1): DiscriminatorS(
        (convs): ModuleList(
          (0): Conv1d(1, 128, kernel_size=(15,), stride=(1,), padding=(7,))
          (1): Conv1d(128, 128, kernel_size=(41,), stride=(2,), padding=(20,), groups=4)
          (2): Conv1d(128, 256, kernel_size=(41,), stride=(2,), padding=(20,), groups=16)
          (3): Conv1d(256, 512, kernel_size=(41,), stride=(4,), padding=(20,), groups=16)
          (4): Conv1d(512, 1024, kernel_size=(41,), stride=(4,), padding=(20,), groups=16)
          (5): Conv1d(1024, 1024, kernel_size=(41,), stride=(1,), padding=(20,), groups=16)
          (6): Conv1d(1024, 1024, kernel_size=(5,), stride=(1,), padding=(2,))
        )
        (conv_post): Conv1d(1024, 1, kernel_size=(3,), stride=(1,), padding=(1,))
      )
      (2): DiscriminatorS(
        (convs): ModuleList(
          (0): Conv1d(1, 128, kernel_size=(15,), stride=(1,), padding=(7,))
          (1): Conv1d(128, 128, kernel_size=(41,), stride=(2,), padding=(20,), groups=4)
          (2): Conv1d(128, 256, kernel_size=(41,), stride=(2,), padding=(20,), groups=16)
          (3): Conv1d(256, 512, kernel_size=(41,), stride=(4,), padding=(20,), groups=16)
          (4): Conv1d(512, 1024, kernel_size=(41,), stride=(4,), padding=(20,), groups=16)
          (5): Conv1d(1024, 1024, kernel_size=(41,), stride=(1,), padding=(20,), groups=16)
          (6): Conv1d(1024, 1024, kernel_size=(5,), stride=(1,), padding=(2,))
        )
        (conv_post): Conv1d(1024, 1, kernel_size=(3,), stride=(1,), padding=(1,))
      )
    )
    (meanpools): ModuleList(
      (0): AvgPool1d(kernel_size=(4,), stride=(2,), padding=(2,))
      (1): AvgPool1d(kernel_size=(4,), stride=(2,), padding=(2,))
    )
  )
)
Parameter number: 70724591

--------------------------------------------------------------
  Epoch |  Duration(s) |   Train loss |     Dev loss |  Best
--------------------------------------------------------------
…
