…
    Exts:['.bin']
    Dims:[1]
    Reso:[1]
    Norm:[False]
Dataset asvspoof2019_val:
  Time steps: 1382564017 
  Data sequence num: 24844
  Maximum sequence length: 185508
  Minimum sequence length: 11122
  Inputs
    Dirs:
        /home/smg/wang/WORK/WORK/WORK/pytorch-project-2020/proj-asvspoof/data/train_dev
    Exts:['.wav']
    Dims:[1]
    Reso:[1]
    Norm:[False]
  Outputs
    Dirs:
    Exts:['.bin']
    Dims:[1]
    Reso:[1]
    Norm:[False]
[94mUse single GPU: Tesla V100-DGXS-32GB[0m
Model(
  (m_resampler): Resample()
  (m_vad): Vad()
  (m_transform): ModuleList(
    (0): Sequential(
      (0): Conv2d(1, 64, kernel_size=[5, 5], stride=(1, 1), padding=[2, 2])
      (1): MaxFeatureMap2D()
      (2): MaxPool2d(kernel_size=[2, 2], stride=[2, 2], padding=0, dilation=1, ceil_mode=False)
      (3): Conv2d(32, 64, kernel_size=[1, 1], stride=(1, 1), padding=[0, 0])
      (4): MaxFeatureMap2D()
      (5): BatchNorm2d(32, eps=1e-05, momentum=0.1, affine=False, track_running_stats=True)
      (6): Conv2d(32, 96, kernel_size=[3, 3], stride=(1, 1), padding=[1, 1])
      (7): MaxFeatureMap2D()
      (8): MaxPool2d(kernel_size=[2, 2], stride=[2, 2], padding=0, dilation=1, ceil_mode=False)
      (9): BatchNorm2d(48, eps=1e-05, momentum=0.1, affine=False, track_running_stats=True)
      (10): Conv2d(48, 96, kernel_size=[1, 1], stride=(1, 1), padding=[0, 0])
      (11): MaxFeatureMap2D()
      (12): BatchNorm2d(48, eps=1e-05, momentum=0.1, affine=False, track_running_stats=True)
      (13): Conv2d(48, 128, kernel_size=[3, 3], stride=(1, 1), padding=[1, 1])
      (14): MaxFeatureMap2D()
      (15): MaxPool2d(kernel_size=[2, 2], stride=[2, 2], padding=0, dilation=1, ceil_mode=False)
      (16): Conv2d(64, 128, kernel_size=[1, 1], stride=(1, 1), padding=[0, 0])
      (17): MaxFeatureMap2D()
      (18): BatchNorm2d(64, eps=1e-05, momentum=0.1, affine=False, track_running_stats=True)
      (19): Conv2d(64, 64, kernel_size=[3, 3], stride=(1, 1), padding=[1, 1])
      (20): MaxFeatureMap2D()
      (21): BatchNorm2d(32, eps=1e-05, momentum=0.1, affine=False, track_running_stats=True)
      (22): Conv2d(32, 64, kernel_size=[1, 1], stride=(1, 1), padding=[0, 0])
      (23): MaxFeatureMap2D()
      (24): BatchNorm2d(32, eps=1e-05, momentum=0.1, affine=False, track_running_stats=True)
      (25): Conv2d(32, 64, kernel_size=[3, 3], stride=(1, 1), padding=[1, 1])
      (26): MaxFeatureMap2D()
      (27): MaxPool2d(kernel_size=[2, 2], stride=[2, 2], padding=0, dilation=1, ceil_mode=False)
    )
  )
  (m_output_act): ModuleList(
    (0): Sequential(
      (0): Dropout(p=0.7, inplace=False)
      (1): Linear(in_features=4416, out_features=160, bias=True)
      (2): MaxFeatureMap2D()
      (3): Linear(in_features=80, out_features=1, bias=True)
    )
  )
  (m_frontend): ModuleList(
    (0): LFCC(
      (l_dct): LinearDCT(in_features=20, out_features=20, bias=False)
    )
  )
)
Parameter number: 864305
--------------------------------------------------------------
  Epoch |  Duration(s) |   Train loss |     Dev loss |  Best
--------------------------------------------------------------
      0 |         54.5 |       0.0865 |       0.0279 |   yes
…
